model.npz (npz, 64646 bytes, 4 tensors)

W1 f8 [10, 784]
000000 70 a1 37 73 81 18 b7 3f ec f9 a3 3f 01 eb c3 bf
       0.0902176767627958 -0.15560927970359673
000010 74 be 59 8b f2 5b c0 3f 88 c3 2e b4 ac 10 b9 3f
       0.12780601314760853 0.09791068457594865
000020 32 a8 8e 39 ab 1f d7 bf 50 24 17 10 12 93 a2 bf
       -0.3613079130251463 -0.03627830931106557
000030 40 fc e9 87 65 eb c9 3f 10 6a f8 5f e8 50 bd 3f
       0.2024962342875103 0.11451580374743053
000040 42 b2 0f 5e 52 89 dc bf 00 04 07 74 f5 ae b6 bf
       -0.4458814543311612 -0.08860715944958031
000050 ac a1 9c fa d2 00 c7 bf fa e8 4b 13 65 b3 dc bf
       -0.17971265065103859 -0.4484493912165274
000060 9a 1c f7 ff 43 da d1 3f 01 6a 43 56 34 94 bd bf
       0.27894687649354355 -0.11554267030752642
000070 cd 5b 97 27 17 cd d7 3f 7d 6d 20 47 5f 7e b3 3f
       0.3718927275307891 0.07614703642359717
000080 5c f0 5c 19 08 bc ca 3f b6 2a 6b 90 7a 5e df bf
       0.20886327017240347 -0.4901415262544718
000090 94 1d 0d 4f 6e a2 d8 3f 78 04 34 d8 45 9c bd bf
       0.3849139949783986 -0.11566578415296813
0000a0 78 3d a1 51 0d 53 d1 bf c6 e8 c4 26 5c d7 df 3f
       -0.270694093433995 0.49751952920963693
0000b0 a4 01 b4 4e 97 92 cd 3f 66 28 07 e3 56 58 d0 3f
       0.23103610365798233 0.2553918091840671
0000c0 da 15 e7 f1 81 f3 dd bf 54 40 13 d9 9b d4 dd bf
       -0.4679875242548782 -0.4661016101717952
0000d0 18 2e 69 e0 77 37 c9 3f 1e 01 53 be 5b 78 dc 3f
       0.1970052572017813 0.44484609209395554
0000e0 f0 3c 2d 96 e8 07 ae 3f 40 fd 18 ea 2a a0 8f bf
       0.05865408738338285 -0.015442214268772347
0000f0 50 ab ee b8 5a 9c a6 bf 8e 32 1e 6e 57 73 d9 bf
       -0.04416163928484329 -0.39766488794047283
000100 5a 2a f3 fc 95 42 d4 bf dd e9 84 2a ac 09 da 3f
       -0.31656408025870564 0.4068403640009402
000110 d3 e7 28 68 b3 65 da 3f 68 a1 8e e0 77 ea c7 3f
       0.4124573247132705 0.18684290375427826
000120 98 f5 cf 2b c3 7a c1 3f b3 ac 8c 56 92 95 cc 3f
       0.1365589107444236 0.22331456399965574
000130 4b 74 a1 58 35 1d d1 3f 02 77 e2 fd 58 c8 b6 bf
       0.26740773825969616 -0.08899456213336168
000140 03 d4 7f a8 4b 52 bc bf 64 7b 5d a2 72 c5 c2 bf
       -0.11063073028329033 -0.1466506283568051
000150 21 4b a4 92 50 72 d1 bf 4e b1 eb 70 01 85 d8 bf
       -0.2726022178696202 -0.38311801936540213
000160 94 d4 93 77 f0 b7 ca 3f 3d 5e 45 6f 0b 28 c4 3f
       0.20873838270896228 0.15747206624176782
000170 64 a2 fc 9b 98 73 ae bf 3d f2 5f a6 74 61 de bf
       -0.05947567848335636 -0.47469822166002357
000180 b9 cc 81 a1 64 30 dd bf 96 0e ed 9c 15 ea df bf
       -0.4560786797730532 -0.49866237950139103
000190 50 de 10 c7 09 25 de 3f 95 29 d1 df 2b ce c1 3f
       0.4710106319430212 0.139104351316132
0001a0 28 e6 d9 f8 85 d7 c2 3f d0 51 65 41 b4 45 a8 3f
       0.14720225001274057 0.047406800253756765
0001b0 a0 2f d9 16 12 e9 c2 bf 0c 48 2f 78 b7 8e dc bf
       -0.14773775210994433 -0.4462107347181934
0001c0 20 e5 e1 48 3f 1b b2 3f 6a 17 3f 43 a1 21 db 3f
       0.07072825936656502 0.42392760817562325
0001d0 f0 23 99 59 75 e8 56 bf 41 3c 27 22 92 56 dd bf
       -0.001398195838549162 -0.4584088643577538
0001e0 78 d0 7f d5 b0 74 cb bf df 59 35 09 86 18 cc bf
       -0.21449861931580805 -0.2194984002077964
0001f0 51 14 dd d8 f9 d1 de 3f 65 40 4c 84 e0 04 d1 3f
       0.48156591585240444 0.2659226695987001
000200 93 2f bb 32 fc 44 9a bf e3 7d c3 1b d9 e7 bf 3f
       -0.025653782459627527 0.12463147094557984
000210 1e 30 aa fa b4 45 b5 bf 58 0c 08 73 7a c5 cc bf
       -0.08309489364381803 -0.22477655998963786
000220 7f b8 c7 21 94 d1 d0 3f b1 9c c2 6c 03 df dd 3f
       0.2627916650661816 0.46673665639031997
000230 9f a3 ba 51 5a 47 78 3f d2 a7 fb 59 c7 d9 db 3f
       0.005927422341906046 0.4351671580067179
000240 b1 bb 3b 3e 61 b5 b8 3f db 4d 2f 5e 72 65 d2 3f
       0.09651763696068262 0.287441818215681
000250 de 75 da 79 6c 1d d4 bf 18 5d c8 57 6c 24 bd bf
       -0.31429588222257887 -0.11383702414638142
000260 aa 9c a4 59 d0 6f dd bf b4 b8 8b 19 a7 14 b2 bf
       -0.4599495768947671 -0.07062763570476954
000270 e9 1f df cf 87 7e d5 bf 84 05 a9 fd 41 e6 d1 bf
       -0.3358478097911744 -0.2796788193846498
000280 de ca a5 2f 28 c4 ae 3f 37 19 80 80 63 48 a8 bf
       0.06009030896793431 -0.04742728179558003
000290 48 25 66 22 7b ca db bf 40 ec 08 46 17 89 bb 3f
       -0.43423345908430067 0.10756059131465268
0002a0 de 51 36 fa 1f a6 da 3f 60 0e 1c d7 9c 49 ac bf
       0.41638945994171006 -0.055249120005126384
0002b0 9b e1 9f 43 47 49 de bf 5b 79 bf 30 17 21 d6 bf
       -0.4732225571056234 -0.34576968918363143
0002c0 41 41 5a 08 b9 6c d9 3f 0d 5e dc b9 66 5b d1 bf
       0.3972609120910598 -0.27120369101018654
0002d0 90 dc 77 ba b1 d2 d1 bf a9 f1 0f e3 c3 03 ba 3f
       -0.2784847565630537 0.10161995213997578
0002e0 95 d0 71 ed 54 cf d7 3f be d4 2a 43 d6 8e 71 3f
       0.37202952564190045 0.0042866105674665405
0002f0 5f 3a 0f 6e 70 33 db 3f 30 9d a5 d4 c9 7b 83 3f
       0.42501459835049177 0.00951345138737611
000300 99 2e 35 b9 9f 7e cd 3f 25 53 3a dc 55 dc dd bf
       0.23042675536486426 -0.4665732050573744
000310 61 27 e2 73 69 56 ce 3f d5 ba 1e 0c 3d 5c b0 3f
       0.23701208265657228 0.06390744729899762
000320 82 65 62 08 e2 2b c7 bf d9 47 73 80 57 9a db 3f
       -0.181026701063086 0.43129527610755997
000330 70 bc a5 d3 3f 71 97 3f 65 43 17 ce 03 7f 80 3f
       0.022892949383671313 0.008054761626142779
000340 cb dd 9b 10 d2 0f de 3f 8f b4 6b d1 76 25 cb 3f
       0.4697156107135611 0.21208081460591585
000350 f4 39 2e e3 82 3b d2 bf 37 b2 05 96 4b c3 b3 bf
       -0.28488228021242823 -0.07719871914532282
000360 00 8b 39 4c 62 87 9a bf b1 9c 39 9e 4d 85 bd 3f
       -0.025907073881522358 0.11531529534259978
000370 19 fb 82 20 df 17 d3 3f 10 a9 8c f1 7d e0 b4 bf
       0.2983320062157176 -0.08155047557071193
000380 30 ee 22 93 ca 6c d5 bf b0 4e 0f b8 ff 46 cd 3f
       -0.3347650944594731 0.22872921454710626
000390 f9 a6 7a ab 10 36 db bf 26 48 ff 91 1d fb de 3f
       -0.4251748728371321 0.48407687432802715
0003a0 09 45 58 48 7f ce d6 3f 26 59 76 81 c9 de c1 bf
       0.35635358872339445 -0.13961142369652996
0003b0 f9 bb 7d c0 78 ff df bf 51 7a 0b af 8b ad a5 3f
       -0.4999677543445951 0.04233967315461896
0003c0 b6 16 5d ff 83 0e b6 3f ad e4 14 3c e3 10 c7 3f
       0.0861589907118184 0.1802028697364099
0003d0 47 a1 08 3a b1 5b d6 3f 0c 91 b9 06 59 1e 50 bf
       0.349346453355356 -0.0009837979695471203
0003e0 42 04 7c a5 a5 47 b8 3f 17 56 dd 7f 70 da 80 3f
       0.09484324731967411 0.008229140188329471
0003f0 1c 87 e4 27 17 56 9b 3f a8 5f b5 89 d0 19 c0 3f
       0.026695596513611183 0.12578779911086468
000400 8e 2d 4f b3 0e 98 ce bf 0f 3b 18 a4 87 67 be bf
       -0.239015424302448 -0.11876724010674543
000410 be 56 32 60 ac f5 df 3f 73 c6 48 b8 8e 47 da 3f
       0.49936971086695425 0.41061752316009076
000420 3a 91 65 66 4a f9 d9 bf 12 d5 9f 5a 25 9c db 3f
       -0.4058404922455058 0.431405390262925
000430 18 c8 8a ec 6f 24 d3 bf f9 01 b9 13 a6 6b d1 bf
       -0.29909895038429246 -0.2721953575710639
000440 35 2d 9e 50 4c b4 de bf a5 95 c0 1d d3 ac c7 3f
       -0.47975452301826077 0.1849616904520818
000450 33 31 c8 1a b8 23 b8 bf 58 de 98 9e 24 fe c0 3f
       -0.09429503110749664 0.13275583023072346
000460 e0 d7 b1 c8 b5 2a d9 3f d4 e1 42 7e d7 2a c6 bf
       0.3932318172368223 -0.17318242707348352
000470 60 17 66 af b3 89 d4 3f 75 71 d7 44 e1 9f df 3f
       0.32090465668476575 0.4941332981377607
000480 9d ef 29 4e 1e d0 a4 3f 4e f6 76 b7 21 cc d3 bf
       0.04065031723163701 -0.3093342105529232
000490 52 7d 5b b0 26 98 d9 3f 25 08 cf ea 09 b1 d5 3f
       0.39991156790161597 0.33893058710612173
0004a0 65 93 8e 46 52 c6 c4 bf 8b e4 b4 e3 04 f0 9c 3f
       -0.16230228848612707 0.02825935020266405
0004b0 11 6d 4e 3d 7b cd cc bf 78 57 e2 a4 fb f9 d3 bf
       -0.2250207948062344 -0.31213275052993295
0004c0 01 aa 25 8f d5 08 b2 bf df fa 4f ce 3f ee b5 3f
       -0.07044729943087448 0.0856666449253498
0004d0 99 86 7c 31 98 42 a6 bf 6b 42 55 92 be be b3 bf
       -0.043476825753043964 -0.07712927887519931
0004e0 e6 58 c4 28 31 ac c1 3f 45 c7 ee e2 4c 9a a1 3f
       0.13806738367629307 0.03438034315276054
0004f0 eb e7 fe 43 7e 27 c5 bf 29 bd e8 a2 53 18 d6 bf
       -0.16526773758033583 -0.34523478421302173
000500 5e ec 96 76 0b fa bd 3f ed f6 41 0a 7c 15 d5 bf
       0.11709663052799743 -0.329436311738262
000510 aa 49 6a 82 f9 2d cf bf cb 0b a4 79 50 14 d5 3f
       -0.24359053485802679 0.32936488989815577
000520 48 ed e1 90 69 d3 d6 bf 7b 0c cc 4c 54 9a cb bf
       -0.3566535868519236 -0.21564725637299262
000530 99 68 ae 75 5b 88 d0 bf 9e 3a 1d a6 1b c5 d2 bf
       -0.2583225869399342 -0.2932805177887675
000540 2a ff 27 5b bb c2 d2 bf ce bc 98 c0 e8 a0 cf bf
       -0.29313548948265356 -0.24709805873997087
000550 9d 73 f4 a6 b6 51 d6 3f df ab 2c 88 23 17 b1 3f
       0.34873739532650366 0.06675932001660055
000560 7c 07 81 7c 39 c8 da bf 14 94 63 01 29 f4 bd 3f
       -0.41847073706241367 0.11700683864508249
000570 d1 0f e8 00 7a 96 df bf e9 7d 2f ae 41 d8 b5 3f
       -0.49355936134838624 0.08533106329513597
000580 f2 93 5f c6 db 08 96 bf e6 28 22 98 9a 47 d1 bf
       -0.021518167479275215 -0.26999535424023546
000590 f5 d2 79 99 e1 3e dd bf fb 53 05 15 88 c1 d7 bf
       -0.4569629668033451 -0.3711872296601652
0005a0 a5 d2 65 66 3b 53 d8 bf ac ab 48 f3 95 6e d1 3f
       -0.3800800800302489 0.27237461813154584
0005b0 a1 f8 c5 bb 74 22 7e bf 3b 9d c6 da 82 49 d4 3f
       -0.007357078542893942 0.31698676457240865
0005c0 48 11 1b 96 01 60 da 3f 5e 90 84 0a 91 08 a3 3f
       0.4121097532154363 0.03717473271743253
0005d0 2c 48 c9 0f c1 03 c4 3f a7 1c e0 7f 46 da d7 bf
       0.1563645674783073 -0.3726974724563185
0005e0 5f ac de 83 bf ea da 3f ec 95 e9 3a 47 64 b8 bf
       0.4205778873244465 -0.09528012455265128
0005f0 65 2a 53 43 da de d1 3f eb 15 06 32 7e 62 9a bf
       0.27922684263891134 -0.02576634579010843
000600 0d aa cb fb 30 a7 cb bf d2 ca 57 8b 23 93 de 3f
       -0.21603977484421968 0.47773064239224283
000610 db 82 50 e9 d4 e9 99 bf a3 e3 7a f0 17 91 c0 3f
       -0.02530605958975483 0.12942790262402779
000620 86 6c 29 6f e9 2f d7 bf 45 b7 80 f5 6f 69 dd bf
       -0.3622993074001858 -0.45956038451082676
000630 2b b2 4b db 90 d5 d1 3f 98 4f 45 ed a3 50 db 3f
       0.2786600247916648 0.42679689570399537
000640 8a 50 e4 cc fa 1c c9 3f 64 e9 14 be fd 08 d5 3f
       0.19619688992009215 0.32867377817787813
000650 8f 0a ec d1 d1 9a d7 3f 5c 18 29 31 81 31 c3 3f
       0.36882443905066337 0.14994826221863178
000660 08 7d 76 8f af 95 de bf 59 ae 90 9a 18 ba d8 bf
       -0.47788609514277924 -0.3863584050584215
000670 40 fb ca 0a 6b af c4 bf 15 92 4d 80 de a1 d0 bf
       -0.1616033365916909 -0.2598797085723004
000680 51 db e3 fa ef 06 dc 3f 47 87 21 6e ea 5b d2 3f
       0.4379234266374868 0.2868600917337187
000690 74 77 6e 4f fb da d9 3f f8 48 7e 47 fc 26 b9 3f
       0.4039905811022131 0.09825112100068967
0006a0 81 67 4b 8c 22 df bc 3f 97 44 5d d6 2c 63 c4 3f
       0.1127797691837298 0.1592765852642841
0006b0 4f c3 08 84 35 2e af 3f c2 e0 10 b1 5a fc d5 bf
       0.060899422042331446 -0.3435274819526165
0006c0 3a 57 08 43 56 bf bf 3f 4e 1b b5 ae 2d 77 d5 3f
       0.12401332031762716 0.33539907513879974
0006d0 d1 b7 16 d1 e5 a2 ba bf b7 26 eb 58 42 85 8a 3f
       -0.10404812197404502 0.01294948419435414
0006e0 5c 2c da bc a3 e9 b2 3f f7 16 00 15 db c8 dd 3f
       0.07387755737924934 0.46538426447692366
0006f0 16 29 47 12 52 f1 de bf e9 36 4a aa 25 97 de bf
       -0.48347904000242303 -0.4779752886760052
000700 da c3 8b d8 c2 84 d9 3f 50 40 c1 e6 69 00 dd 3f
       0.3987280955034841 0.45315024885804167
000710 b1 22 4d f0 55 05 cd 3f 8c 58 66 0e 3b b3 d6 bf
       0.22672533257925445 -0.3546893730757652
000720 ea 4a a5 65 f0 88 bf bf 07 9a be 01 ff e1 d3 bf
       -0.12318327409347388 -0.3106687085186483
000730 2a cc f5 14 d8 b2 9e bf 2a a2 a4 c9 0b 23 db bf
       -0.029979110984140224 -0.42401404086789063
000740 5b 0f 53 f8 bb 84 c6 3f b1 8f 09 27 13 e2 d9 3f
       0.17592572808473048 0.4044235116218671
000750 6c 70 0e 87 a0 77 d7 3f 25 68 19 bd 14 54 df 3f
       0.36667645634748314 0.4895068976089781
000760 74 98 fb 8a 2f 6a 86 bf 21 8f a1 94 76 9e d3 bf
       -0.010944720677297883 -0.3065468265033236
000770 15 8d 80 f7 43 c4 db 3f c8 8b 4b 1d 4b 32 d6 3f
       0.4338540951741419 0.3468196664891221
000780 81 0c e4 43 1d 12 c9 3f 9c d0 4a 81 af 6a d3 3f
       0.19586530508977165 0.30338657022662985
000790 e9 a4 7c b9 e2 55 d6 bf 10 63 56 65 e1 36 d5 bf
       -0.34899204362825614 -0.33147463699565183
0007a0 24 75 74 3f 63 1b cb bf 6d bd 03 21 39 b3 db bf
       -0.21177330587753673 -0.4328139135750096
0007b0 e8 08 d6 36 c1 51 d4 3f 18 21 54 3b bb 97 c3 bf
       0.31748991351208966 -0.1530679740610672
0007c0 03 48 94 30 b8 14 be 3f 48 8c e4 f0 6e 7c ba bf
       0.11750365434662062 -0.10346120244189294
0007d0 e7 9a 63 1e 61 f6 d7 bf 54 73 da d3 26 a3 d6 bf
       -0.3744128033417113 -0.3537079876785374
0007e0 6b d6 6d 7b 48 9e dc 3f d0 2f e6 44 69 c6 b9 bf
       0.44716083577745874 -0.10068376476391383
0007f0 cc 38 6d a1 d8 a3 27 bf e4 09 e2 12 f5 57 dc 3f
       -0.00018035907188579945 0.44286848873176

b1 f8 [10, 1]
000000 7b 04 4b 6d 3a a8 d2 3f 11 1f c7 24 d8 d7 c4 3f
       0.2915178363146606 0.16283704562942394
000010 bb ed 5b a6 e8 5a c5 3f 77 79 a1 bd 54 37 e9 3f
       0.1668368160534167 0.7880042747236037
000020 df 8b 1e d7 cd 6c ed 3f a3 50 09 17 0e 9c dd 3f
       0.9195317460583928 0.46264984368941436
000030 cd 3a e8 19 76 6f dc 3f 78 66 bc 69 a4 11 b8 3f
       0.44430305986399504 0.0940191991943723
000040 09 ab 5d 44 43 51 e8 3f a6 18 0a cc 2d 2e c2 3f
       0.7599197707434949 0.14203426802504743

W2 f8 [10, 10]
000000 be 94 1d d7 df d0 d5 3f 19 df c1 96 d0 06 dd bf
       0.34087368018510833 -0.45354094240563964
000010 e1 d7 67 48 8e f1 c2 3f ec d5 9a 40 c2 b0 c5 3f
       0.14799669776374372 0.1694567504361396
000020 09 4d 15 1f 30 d2 e0 bf 47 57 0c f6 17 b1 d1 bf
       -0.525657711705578 -0.2764339354338187
000030 92 7b 0c f2 93 5d b6 bf 8c 4c 4b c5 53 cc ea 3f
       -0.08736538562196319 0.8374422887230977
000040 e9 d4 43 c0 3e 98 cc bf 74 02 b5 3f 39 a2 df bf
       -0.22339615238130442 -0.49427634450334
000050 a9 65 a1 52 55 b1 d8 bf 8d 05 44 53 b5 32 d5 bf
       -0.385823565191084 -0.3312199891225525
000060 b1 18 d0 26 80 de d5 bf 3e 8b 92 11 f2 d7 d2 bf
       -0.3417053584129333 -0.2944302722555
000070 43 e0 17 32 5f e4 e4 3f a2 af 42 39 a5 80 e1 bf
       0.6528774240860077 -0.546953784787082
000080 7b d0 44 06 a6 b7 b1 3f e8 d6 fc 95 5c 5e 7f bf
       0.06920850422904039 -0.007658349670057275
000090 f0 e5 22 f5 a7 f2 de bf 9e c5 02 8f 85 65 e7 3f
       -0.48356055201619963 0.7311427872829659
0000a0 51 7d 14 d8 a8 af d3 bf 92 11 c8 18 2c ef be bf
       -0.3075964079052556 -0.12083697896020443
0000b0 e3 eb ac ef c7 42 c5 3f ec 67 ad 7f d7 dc bb bf
       0.16610049441246053 -0.10883852831958024
0000c0 e9 58 23 e8 51 a6 e0 3f f4 f7 5a 42 12 ff a3 3f
       0.5203027280756746 0.039055414772050684
0000d0 1c d3 c1 9d e3 eb d9 bf df a5 b8 6f 1e ca e0 3f
       -0.4050225296589802 0.5246727163368482
0000e0 88 90 b0 d2 84 31 c4 3f f1 1c 32 f7 29 d9 cc bf
       0.15776119506438513 -0.22537731714348966
0000f0 b6 8f c4 7f 40 f7 c3 3f 40 49 d0 c6 da 95 e0 3f
       0.1559830306879328 0.5182927973822089
000100 f6 e0 ae bb 63 16 d0 bf a9 98 b5 b6 e5 0d d5 3f
       -0.2513665516703577 0.32897322504721643
000110 1d 02 ce 18 52 62 d1 3f ea 4a 29 0c 6d 8d d8 bf
       0.2716260187371818 -0.3836319559824647
000120 92 42 5c 7d 1e 41 9e 3f 12 ee 73 0c 75 2d d0 bf
       0.02954528465403656 -0.2527744886026265
000130 e2 a0 bc 93 cd bb c5 bf e1 ec c2 f4 8e 92 e1 bf
       -0.1697937938090553 -0.5491404324051495
000140 59 98 93 c8 c9 23 c2 bf 37 2d 29 70 68 56 c0 3f
       -0.1417171697023061 0.1276369617138273
000150 f1 90 c5 f4 f1 44 d9 bf 46 7d 29 ca b5 9b d8 bf
       -0.39483307746401325 -0.38450379125966483
000160 9b 98 e1 b3 9e 66 e1 bf 43 d8 f6 50 5b d1 eb 3f
       -0.5437768472009056 0.8693062383015405
000170 c9 2e d8 c1 50 e6 c7 3f 1b d6 d5 b2 7f bb ba bf
       0.18671616997777665 -0.10442350498291157
000180 cc 3b 28 52 e5 bd cd 3f 72 47 ef 10 17 f8 b1 3f
       0.23235765945034215 0.07019180453724319
000190 64 18 70 01 39 9f d8 3f e8 bc 8b 0c bc f4 9a bf
       0.3847181810418816 -0.026324213281381598
0001a0 3f f9 6e bf 80 da e1 3f df 6b 56 c1 b2 0f 8c bf
       0.5579227198539128 -0.01370181705970269
0001b0 81 0b 4d 07 23 a7 e2 bf d4 b0 c6 9b c2 dc d5 bf
       -0.5829024450871289 -0.34159913265717745
0001c0 8f a0 16 65 c4 ee e3 3f ca 74 02 cd 6e 77 d3 bf
       0.6228963827498023 -0.3041646005675146
0001d0 17 d3 72 33 59 f9 d9 3f 50 04 39 1d 6e d0 d4 bf
       0.4058440210749707 -0.3252215657594819
0001e0 1f 34 9c 0b 7e 71 da 3f 38 47 27 ef 7d 8e bb 3f
       0.4131770242100305 0.10764300430971907
0001f0 7b db dd 9d 3e 7f c7 bf c4 dd af 5e 8e c7 f3 bf
       -0.18357069691020542 -1.2362197588644088
000200 9b bf 91 0d 51 7f b3 bf 42 e7 c2 d4 2d b2 e4 3f
       -0.07616144734652013 0.6467503695959993
000210 37 db 60 76 2a a6 42 bf c8 06 4a f5 b1 dd d3 3f
       -0.0005691249214184517 0.31040619806308856
000220 4f a2 a8 ab 86 a3 d0 3f 4a d5 44 4a 4c 2f c7 bf
       0.25998083842799685 -0.1811309206620229
000230 8d 41 1f 89 a7 1c e2 bf bd ed ab e8 c6 57 d1 bf
       -0.5659978559652231 -0.27098248216472226
000240 28 33 0a e4 b6 3b d5 3f 25 21 4e 8c 47 ff ea 3f
       0.33176967877880026 0.84366204646452
000250 33 b9 1c fc fb 31 b8 bf 76 9a a4 a5 d9 28 db 3f
       -0.09451270012934714 0.4243682973487134
000260 41 35 80 f5 56 db 0c bf 52 32 77 41 88 4c d5 bf
       -5.503996970910664e-05 -0.33279615777135974
000270 9e 4e 60 88 b4 47 eb bf 94 07 04 df ba d4 bc 3f
       -0.8525030768964432 0.11262100167007666
000280 64 72 a9 af 5c 24 a6 3f a7 e8 8d 83 82 89 b6 3f
       0.04324617046652149 0.08803573333526292
000290 f8 24 00 02 13 e2 94 3f bb f5 cb 54 3f 1a 82 3f
       0.02039365482054209 0.008839125418940044
0002a0 3f 31 0b ec e8 75 d1 bf b0 9e 33 10 f7 ae d7 bf
       -0.27282164622444677 -0.3700540216654913
0002b0 83 5c 46 df e9 4a b4 3f 02 e0 bf 4d dc 25 ca bf
       0.0792680902580845 -0.20428041263926394
0002c0 69 e8 95 47 18 1c de 3f e6 f0 8d 1b 4d b7 cb 3f
       0.4704647730901628 0.21653140874321436
0002d0 86 ab bc 40 6f 12 8c bf 26 0e 3a b4 5b c2 c3 3f
       -0.01370703617393133 0.15436884212623275
0002e0 16 66 8c 8b d2 f1 d2 bf d3 de 68 cd 01 3e d3 3f
       -0.29600967052246696 0.3006596094087232
0002f0 08 d2 19 38 d6 24 e2 bf 74 09 50 7e d3 a4 de 3f
       -0.5669966788978522 0.4788101895830075
000300 a8 55 c9 b6 a7 e5 c0 3f 66 f2 f3 5e e5 d3 b8 bf
       0.13200851845855976 -0.09698327606378995
000310 fe 5d 66 9c c0 81 d4 bf fa b2 71 4e ac 42 d4 3f
       -0.3204194571821687 0.3165694013649013

b2 f8 [10, 1]
000000 66 30 dd 49 61 61 d1 bf 10 c7 03 59 68 fe ca bf
       -0.2715686055496519 -0.21088890406058924
000010 18 89 d0 9d ff 2f c1 bf 6c 8c 52 a1 00 dc c9 bf
       -0.13427729802885646 -0.20202644230912215
000020 74 76 cc 1c 7d bd df 3f 62 f0 e0 67 f9 a9 df 3f
       0.4959404736745008 0.4947494043769948
000030 1c 1e 71 11 8d 7c c2 bf 08 2e 60 74 5e 8d 96 3f
       -0.1444259963193283 0.02202365479756277
000040 ff 56 92 7c 70 7b ab bf 08 90 d4 58 92 2f c9 3f
       -0.05367614288949873 0.19676427209299185
